data/converted_simple_model.tflite (tflite, 2008 bytes, 2 tensors)

StatefulPartitionedCall/sequential/dense/MatMul/ReadVariableOp/transpose i1 [8, 4] scale=0.007003813 zero_point=0
00000000: 7fad 10f6 9f3a 5204 3fcc 0043 acf8 00a2
00000010: ce9c e2d9 0a53 3f23 f30e 3dfb 0f36 1ec1
0.8894843 -0.5813165 0.11206101 -0.07003813 -0.67936987 0.40622115 0.5743127 0.028015252
0.44124022 -0.36419827 0.0 0.46925548 -0.5883203 -0.056030504 0.0 -0.65835845
-0.35019064 -0.7003813 -0.21011439 -0.27314872 0.07003813 0.5813165 0.44124022 0.24513346
-0.09104957 0.09805338 0.4272326 -0.035019066 0.105057195 0.3782059 0.21011439 -0.44124022

StatefulPartitionedCall/sequential/dense_1/MatMul/ReadVariableOp/transpose i1 [1, 8] scale=0.049317796 zero_point=0
00000000: 7f49 41ca d439 364b
6.26336 3.600199 3.2056568 -2.663161 -2.169983 2.8111143 2.663161 3.6988347
