data/aurora/aurora_int_quan_model.tflite (tflite, 3992 bytes, 3 tensors)

model/pi/w/read/transpose i1 [1, 16] scale=0.003854649 zero_point=0
0.21200569 -0.019273244 -0.42786604 -0.1734592 0.20815104 0.47797647 -0.08480228 0.4895404
-0.053965084 -0.25055218 -0.38931954 -0.31222656 0.27368006 0.362337 -0.111784816 -0.061674383
00000000: 37fb 91d3 367c ea7f f2bf 9baf 475e e3f0

model/pi_fc0/w/read/transpose i1 [32, 30] scale=0.010105307 zero_point=0
-0.4143176 -0.23242207 0.32336983 -0.06063184 0.32336983 0.35368577 0.37389636 -0.47494945
0.4143176 0.39410698 0.16168492 -0.1414743 0.08084246 0.17179023 -0.24252737 0.656845
-0.050526537 -0.38400167 0.4446335 0.06063184 0.32336983 0.5355813 0.07073715 -0.020210614
0.6063184 0.21221144 0.0 0.4244229 -0.03031592 -0.020210614 0.050526537 -0.08084246
0.11115838 0.49516004 -0.21221144 -0.131369 0.1515796 0.19200084 0.09094776 0.24252737
0.34358045 0.1515796 -0.20210615 0.1414743 -0.09094776 -0.7275821 0.06063184 -0.34358045
-0.5355813 -0.2829486 0.03031592 -0.36379105 -0.03031592 0.20210615 -0.63663435 -0.22231676
0.010105307 -0.21221144 -0.4042123 -0.17179023 0.38400167 -0.12126368 0.0 0.24252737
-0.07073715 0.08084246 0.8690564 0.19200084 -0.08084246 0.31326452 0.35368577 -0.6770556
0.2728433 0.06063184 0.03031592 -0.050526537 -0.08084246 0.07073715 -0.39410698 0.4244229
0.11115838 0.262738 0.24252737 -0.35368577 -0.5355813 -0.39410698 -0.16168492 -0.34358045
-0.020210614 0.101053074 -0.08084246 -0.35368577 0.16168492 -0.2829486 0.18189552 -0.131369
-0.2829486 -0.03031592 -0.19200084 -0.06063184 -0.38400167 -0.24252737 0.3031592 -0.19200084
-0.07073715 0.1515796 0.5456866 -0.4345282 0.6669503 0.020210614 0.37389636 0.45473883
0.39410698 0.131369 1.0206361 0.24252737 0.2829486 1.2732687 -0.12126368 0.5557919
-0.19200084 -0.4143176 0.16168492 -0.525476 0.08084246 0.19200084 -0.4042123 -0.08084246
-0.08084246 -0.38400167 0.07073715 -0.11115838 -0.4143176 -0.6063184 0.50526536 0.03031592
-0.525476 0.23242207 -0.2930539 -0.47494945 -0.03031592 -0.32336983 -0.04042123 0.37389636
-0.19200084 0.36379105 0.0 0.76800334 -0.04042123 0.1515796 0.131369 0.6871609
0.16168492 0.50526536 -0.4345282 0.2930539 -0.050526537 -0.12126368 -0.11115838 0.21221144
0.20210615 -0.4042123 -0.050526537 -0.19200084 0.23242207 -0.35368577 0.101053074 -0.35368577
-0.4446335 -0.2930539 0.23242207 -0.2930539 -0.09094776 -0.2829486 -0.8286352 0.2930539
-0.262738 -1.0307413 -0.17179023 -0.04042123 -0.5557919 -0.1414743 0.3031592 -0.3031592
-0.16168492 -0.1414743 -0.64673966 -0.38400167 -0.36379105 -0.020210614 0.21221144 -0.101053074
-0.11115838 0.262738 0.25263268 0.07073715 -0.050526537 0.4446335 0.6164237 0.2930539
-0.11115838 0.2728433 -0.31326452 -0.22231676 0.6770556 0.17179023 0.010105307 0.8589511
0.050526537 0.656845 -0.45473883 0.24252737 -0.09094776 0.32336983 -0.16168492 0.16168492
0.5456866 0.04042123 0.18189552 -0.131369 -0.17179023 0.4244229 0.21221144 -0.18189552
0.07073715 0.16168492 0.1414743 -0.37389636 -0.06063184 0.11115838 -0.37389636 0.12126368
0.262738 -0.35368577 -0.35368577 -0.08084246 -0.4244229 0.050526537 0.17179023 0.2829486
-0.3031592 -0.131369 -0.4042123 -0.6972662 -0.2829486 0.06063184 -0.49516004 -0.06063184
0.24252737 -0.24252737 0.51537067 0.11115838 0.25263268 -0.25263268 -0.020210614 0.16168492
00000000: d7e9 20fa 2023 25d1 2927 10f2 0811 e841
00000010: fbda 2c06 2035 07fe 3c15 002a fdfe 05f8
00000020: 0b31 ebf3 0f13 0918 220f ec0e f7b8 06de
00000030: cbe4 03dc fd14 c1ea 01eb d8ef 26f4 0018
00000040: f908 5613 f81f 23bd 1b06 03fb f807 d92a
00000050: 0b1a 18dd cbd9 f0de fe0a f8dd 10e4 12f3
00000060: e4fd edfa dae8 1eed f90f 36d5 4202 252d
00000070: 270d 6518 1c7e f437 edd7 10cc 0813 d8f8
00000080: f8da 07f5 d7c4 3203 cc17 e3d1 fde0 fc25
00000090: ed24 004c fc0f 0d44 1032 d51d fbf4 f515
000000a0: 14d8 fbed 17dd 0add d4e3 17e3 f7e4 ae1d
000000b0: e69a effc c9f2 1ee2 f0f2 c0da dcfe 15f6
000000c0: f51a 1907 fb2c 3d1d f51b e1ea 4311 0155
000000d0: 0541 d318 f720 f010 3604 12f3 ef2a 15ee
000000e0: 0710 0edb fa0b db0c 1add ddf8 d605 111c
000000f0: e2f3 d8bb e406 cffa 18e8 330b 19e7 fe10

model/pi_fc1/w/read/transpose i1 [16, 32] scale=0.0072835013 zero_point=0
0.087402016 0.5972471 -0.24763905 -0.6773656 0.0 0.24763905 -0.14567003 0.11653602
0.32775757 0.21122155 -0.34232455 -0.38602558 0.4734276 0.4807111 -0.32047406 -0.021850504
-0.4952781 -0.12381952 -0.16752052 -0.39330906 -0.30590707 0.09468552 -0.24763905 0.021850504
0.16752052 0.31319055 -0.10196902 0.029134005 -0.19665453 -0.22578853 0.0 0.09468552
-0.11653602 -0.66279864 0.23307204 -0.40059257 0.13110302 -0.25492254 0.34960806 0.21850504
0.50256157 0.12381952 -0.05098451 0.21850504 -0.18937103 -0.021850504 0.16752052 -0.05826801
-0.4734276 0.21850504 0.12381952 -0.080118515 0.029134005 0.0 0.17480403 0.0
-0.24035555 -0.15295354 0.06555151 -0.10196902 0.12381952 -0.05826801 -0.11653602 -0.20393804
0.10925252 -0.07283501 -0.05098451 0.66279864 -0.37874207 -0.7939016 0.33504105 -0.029134005
0.014567003 -0.34960806 0.4807111 -0.13110302 -0.7502006 -0.11653602 0.087402016 -0.13110302
-0.37874207 0.23307204 0.23307204 0.21122155 -0.45157707 -0.26948956 -0.11653602 -0.5753966
0.06555151 -0.21122155 -0.087402016 0.10196902 0.20393804 0.036417507 -0.29134005 0.38602558
0.4807111 -0.036417507 -0.31319055 0.6482316 0.43701008 0.014567003 0.11653602 -0.10925252
-0.07283501 -0.42972657 0.18208754 -0.05098451 -0.6700821 0.22578853 0.4224431 0.087402016
-0.11653602 -0.014567003 -0.05098451 -0.14567003 0.18208754 0.10196902 0.34960806 -0.10925252
0.22578853 -0.09468552 0.05098451 0.09468552 0.15295354 0.16023703 0.48799458 0.42972657
-0.39330906 0.080118515 -0.043701008 -0.6919326 -0.35689157 0.26220605 -0.32775757 -0.13110302
0.10925252 -0.42972657 -0.41515958 0.28405654 0.021850504 0.26948956 -0.5753966 0.24035555
0.13110302 -0.26948956 -0.15295354 0.14567003 0.0 0.06555151 -0.38602558 0.35689157
0.014567003 -0.31319055 0.21850504 -0.18208754 -0.17480403 0.0 0.4807111 0.14567003
-0.18208754 0.080118515 -0.29134005 -0.65551513 -0.37145856 0.10196902 -0.014567003 0.5171286
-0.21122155 0.38602558 0.24035555 0.17480403 0.5389791 0.13838652 -0.6700821 0.26948956
0.087402016 -0.29134005 -0.13838652 -0.16752052 0.21122155 0.13110302 -0.33504105 0.029134005
0.5244121 0.33504105 0.34232455 0.12381952 0.33504105 0.39330906 0.26948956 -0.33504105
-0.06555151 0.35689157 -0.05098451 0.28405654 -0.31319055 -0.17480403 0.34232455 -0.5826801
-0.0072835013 0.24035555 -0.16752052 -0.18208754 0.07283501 -0.5171286 0.043701008 -0.043701008
-0.50256157 0.18208754 0.33504105 -0.05098451 0.24035555 0.16752052 0.20393804 0.05826801
-0.087402016 -0.30590707 -0.10925252 -0.21850504 0.12381952 0.39330906 0.24035555 0.07283501
-0.06555151 0.5244121 0.30590707 -0.6846491 -0.12381952 0.80846864 -0.18937103 0.07283501
-0.32047406 0.07283501 0.12381952 0.23307204 0.014567003 0.10925252 -0.029134005 0.31319055
-0.31319055 0.34232455 -0.20393804 0.26948956 0.12381952 -0.4442936 -0.4442936 0.33504105
0.24035555 0.5244121 0.36417508 -0.15295354 -0.18208754 -0.07283501 0.09468552 -0.21122155
00000000: 0c52 dea3 0022 ec10 2d1d d1cb 4142 d4fd
00000010: bcef e9ca d60d de03 172b f204 e5e1 000d
00000020: f0a5 20c9 12dd 301e 4511 f91e e6fd 17f8
00000030: bf1e 11f5 0400 1800 dfeb 09f2 11f8 f0e4
00000040: 0ff6 f95b cc93 2efc 02d0 42ee 99f0 0cee
00000050: cc20 201d c2db f0b1 09e3 f40e 1c05 d835
00000060: 42fb d559 3c02 10f1 f6c5 19f9 a41f 3a0c
00000070: f0fe f9ec 190e 30f1 1ff3 070d 1516 433b
00000080: ca0b faa1 cf24 d3ee 0fc5 c727 0325 b121
00000090: 12db eb14 0009 cb31 02d5 1ee7 e800 4214
000000a0: e70b d8a6 cd0e fe47 e335 2118 4a13 a425
000000b0: 0cd8 ede9 1d12 d204 482e 2f11 2e36 25d2
000000c0: f731 f927 d5e8 2fb0 ff21 e9e7 0ab9 06fa
000000d0: bb19 2ef9 2117 1c08 f4d6 f1e2 1136 210a
000000e0: f748 2aa2 ef6f e60a d40a 1120 020f fc2b
000000f0: d52f e425 11c3 c32e 2148 32eb e7f6 0de3
